CustomAgent/weight.pth (torch, 193974 bytes, 5 tensors)

fc1.weight f4 [64, 680]
00000000: 3f1d aabd 9375 77bc ad97 8c3d 938e e73b
00000010: 76de 45bd 88f4 acbb b6d4 263c 25e4 5cbc
00000020: 70c9 08bd 34a0 bdbc f3a6 8b3d 0ef5 8d3d
00000030: 39d4 cd3c c76b 24bd 972f 0a3e 6085 f53d
00000040: d449 27bd f08c 11bd 5d5c 07bd fe3e 963d
00000050: 883f 8d3c 36a4 cdbc b284 78bd bc0c f2bd
00000060: 61d3 853d 79a4 703d ef9e efbc dbf9 8b3d
00000070: 6331 b6bc 8d44 9e3d fc0c 7f3d 2b9f 81bd
00000080: e315 cd3c bc5f a6bd 11ea e43c ad08 b4bd
00000090: fd54 2cbb 62d9 f1bc 4543 09be 85c4 09bb
000000a0: 111b f93c 622e 55bd 1f81 993c de49 8abc
000000b0: 2b70 a53d 7976 9ebd 52dd 8d3a a942 ccbb
000000c0: 55ad a33d 84d8 febd a408 963a c143 7bbb
000000d0: 1f56 8ebd b0b8 0f3d 6465 ad3d 9743 9d3d
000000e0: 0a36 a93c 0702 743d c344 b4bd 9bb2 68bd
000000f0: 7c72 82bc 22c3 3ebd 1352 883c 41a0 84bc
00000100: a4b0 843c e839 c13b 547f 9b3d 4069 6e3c
00000110: c220 9c3d f170 1ebd 3b13 cc3c 9302 9b3d
00000120: b537 dbbc 41ab a93b fbe9 b0bb df8b 5d3c
00000130: cf5d 04bd 3cef 9bbd 487e d53c 3b9e be3d
00000140: 2a38 12bc 9880 44bb b52c ab3d dd2d 063e
00000150: 4cbf 01bd 969e 6ebd a7af a03c ec5a aebd
00000160: 131f 45bc d5db a63d 2076 fe3b 705b 9abd
00000170: 2010 933d 25d4 c23c 93bd 00bb 96f0 13be
00000180: cd1c 89bd afcd 333d c50b e6bb d11f 383d
00000190: 47b8 33bd 6356 64bc 789e 983d b4ab 123d
000001a0: 205a 8bbc 0729 26bd dbab 473d 1d5f 83bd
000001b0: c923 45bc eb9a 2c3e 0472 3d3d 5584 8f3d
000001c0: a9c7 adbd 4cca 06bd 9245 8f3d 5715 813d
000001d0: c60c c4bc 327a 5e3d 210e 1dbd 6055 a6bd
000001e0: 8695 553d 8988 a6bd 1446 11bd 4235 8cbc
000001f0: fcab cc3c 1f06 de3c 2b81 99bd 726e 823c
00000200: 5411 a73d 1a91 99bd 02fa 08be 0cc9 88bd
00000210: e081 2bbd 3710 f8bc 1506 8d3c 230d 1e3d
00000220: 2a7f f33c a19b bf3d 1539 47bc f913 f03d
00000230: 585e f73d 1b8a 543d abe5 673d 7cdd 3a39
00000240: 9e8d a33d 0c56 99bd 5166 d33d cc2c 903b
00000250: 9ee8 1f3d ed8f 9b3c 7190 6e3d 27c0 02bd
00000260: 5855 61bd c4df 0ebc e588 52bd 19c9 0dbd
00000270: 97c3 36bd e51f ac3c 9163 d6bb b6af b3bd
00000280: 375e 273d 2b6c ce3c ff8b 513d fd0c f53b
00000290: 0a3f 643c ec90 a5bc 0ee5 233d 20db ae3d
000002a0: 62be 153d 3153 00be 2c74 983d ec52 7b3d
000002b0: c459 073d e199 2d3d 7f6e 81bd 5291 a43d
000002c0: 054f c6bd aaf7 c8bd cdb9 07bd 777e 9a3d
000002d0: c702 013d d22b a0bb 021d 88bd e3b2 1d3d
000002e0: 160d 343d 9926 323d 0233 903d 2c4f 30bb
000002f0: 2266 aebd 8711 ab3d edaf 46bd 220d 7fbd
00000300: 8093 17bd 0a4f c7bb 70ff 21bd fb58 843d
00000310: 3970 43bc eef4 9a3c a152 073d 4ec1 ac3d
00000320: d0d2 80bd 8e2f 583d addc 2dbd 9aeb 533d
00000330: dd1b 88bd abeb 5b3d 5022 2c3d 79fe 0ebd
00000340: 297e cc3d 855e 49bd 5b02 9abc 7310 7f3c
00000350: f82b 6e3c f43b 303b c2d1 173e 4062 a33d
00000360: 8f8d b6bc 72c3 183d 8878 9dbc fb25 e93d
00000370: 1f94 0bbd 3865 eb3c a855 d83a 7bfc 953d
00000380: 78ba f13b 3711 76bc 6b1f 793c 9b9b 6e3d
00000390: 2b2c 84bd 8262 893d 2de9 e1bb bb01 5cbd
000003a0: 62fa 7bbd ee4c 87bd a49b 4e3d 3db1 ccbd
000003b0: aee7 673d 2a6d 863c f728 413d 6717 f63d
000003c0: a595 7f3d f6cc f63b 40a3 74bd 2bad f83c
000003d0: 8065 84bd ee21 c5bd 239e a83d cc68 c43c
000003e0: 742e cebc 8014 203e 491b 983c c423 d73c
000003f0: f613 84bd 8e7a 3f3c f20a 673c 3c25 9f3d
-0.083063595 -0.0151037155 0.06864867 0.0070665567 -0.04830786 -0.005278174 0.01018255 -0.013482128
-0.03339523 -0.02314768 0.068189524 0.06931506 0.02512561 -0.040141847 0.13494717 0.1198833
-0.040841892 -0.0355348 -0.03304707 0.073362336 0.017242208 -0.025102716 -0.060673423 -0.11818835
0.06534458 0.058750603 -0.02925059 0.068347655 -0.022240346 0.07727919 0.062268242 -0.06329187
0.02503485 -0.08123729 0.027943643 -0.08790717 -0.0026295774 -0.029522602 -0.13404568 -0.0021021676
0.030408414 -0.052046187 0.018738328 -0.016880926 0.08078035 -0.077374406 0.0010823405 -0.0062335324
0.07992045 -0.12443641 0.0011446667 -0.0038339945 -0.0695002 0.03508824 0.08466604 0.07678907
0.02065565 0.059572246 -0.08802178 -0.056810956 -0.015923731 -0.046572812 0.016640699 -0.016189696
0.01619751 0.0058967955 0.07592645 0.014551461 0.076234356 -0.038681928 0.024911514 0.0756885
-0.026759962 0.0051778858 -0.0053989864 0.013522117 -0.032316025 -0.0761399 0.026061192 0.09307524
-0.008924523 -0.0029983874 0.083581366 0.13103433 -0.031676576 -0.058256708 0.019615008 -0.08513436
-0.012031334 0.081473984 0.0077655464 -0.075369716 0.0718081 0.023782799 -0.0019644245 -0.14447245
-0.066949464 0.043897327 -0.007020446 0.044952217 -0.043876912 -0.013936612 0.074521005 0.03580828
-0.017010748 -0.04056647 0.04874788 -0.06414626 -0.012032458 0.16855972 0.046251312 0.07007662
-0.08485348 -0.03290777 0.06995691 0.063028984 -0.023931872 0.054315753 -0.038343553 -0.08121753
0.05214455 -0.08131511 -0.035467222 -0.017115239 0.024984352 0.027102528 -0.0749534 0.015921805
0.08157602 -0.07498379 -0.1337662 -0.06678972 -0.041871905 -0.03028117 0.017214814 0.038586747
0.029723722 0.09355856 -0.0121596055 0.117225595 0.120785415 0.05188952 0.056615513 0.00017820852
0.07985996 -0.07487115 0.1032225 0.0043998715 0.0390402 0.018989528 0.05824322 -0.031921532
-0.05501303 -0.008720342 -0.051400084 -0.03461561 -0.044620123 0.021011302 -0.006542631 -0.087737486
0.040861335 0.025198063 0.0511589 0.007478355 0.013931045 -0.020210706 0.040013365 0.085378885
0.036558516 -0.12531735 0.07444033 0.061358377 0.03304459 0.04238308 -0.063199036 0.0803553
-0.096830405 -0.09812863 -0.033136178 0.075436525 0.03149679 -0.0048880363 -0.06646158 0.038500678
0.043957792 0.04349384 0.07040979 -0.002690266 -0.08515574 0.083529525 -0.04850762 -0.062268384
-0.0370059 -0.0060824202 -0.039550245 0.06462284 -0.011928611 0.01891562 0.033037785 0.084353074
-0.06290209 0.052779727 -0.04244678 0.05173836 -0.066459395 0.053691547 0.04202491 -0.034910653
0.09985001 -0.049162406 -0.018799951 0.015567887 0.01453685 0.0026891204 0.1482611 0.07977724
-0.022284297 0.037295766 -0.019222513 0.11384197 -0.034076806 0.028734788 0.001650502 0.073235475
0.007376965 -0.015018753 0.0152052445 0.058253866 -0.06453737 0.06708242 -0.006894252 -0.053712588
-0.06151808 -0.0660647 0.0504414 -0.09994743 0.05661743 0.016409475 0.047158208 0.120161824
0.06239857 0.0075317575 -0.059726 0.03035601 -0.06464672 -0.09625612 0.08233287 0.023975752
-0.025168635 0.1563282 0.018567698 0.026262172 -0.0644912 0.011686934 0.014101731 0.07770774

fc1.bias f4 [64]
00000000: 0194 89bd e8aa 0d3d 9056 903d ccfd a73d
00000010: 8c8e 9d3d 7538 833a 7d13 a73d 5f09 603d
00000020: fe94 a33d 22aa 08bd 35ac 73bd 3e67 843d
00000030: 1818 2e3c efa3 a93d 1fc0 30bd 7132 4bbb
00000040: 1149 543c 2c1e 7c3d 7460 893d e05e 0dbd
00000050: 034f b0bc 5d8f 08bd a6b0 4abd 521f 2ebd
00000060: e898 9e3d dbdb 10bd 0569 b1bc 9e4d bd3d
00000070: 2f8a 193d 8119 773d c6dc 9f3c dfa1 2d3d
00000080: 649a 57bd de4b aa3d 19aa 2bba da04 8a3d
00000090: 3462 9b3d e189 82bc 9bec 903d c917 2e3d
000000a0: 5e62 613d fdc7 ec3c f463 7f3d df67 e23c
000000b0: 37a9 943c edd3 b23d a978 933d f3b6 b13d
000000c0: 7519 d73b 8939 4ebc 1034 46bd a964 b6bc
000000d0: f385 b5bc 23a5 fd3c 3bc8 943d d64e 413d
000000e0: ea98 9c3d 8a4f f0bb 4bc5 9a3d 3b98 dd3c
000000f0: 30ae 14bd 399e 9a3d 4743 4c3d 11e4 813d
-0.06717683 0.034586817 0.070477605 0.08202705 0.07693204 0.0010011332 0.08158014 0.054696437
0.079874024 -0.033365376 -0.0594904 0.064650044 0.010625862 0.08283221 -0.04315197 -0.0031005407
0.0129568735 0.06155221 0.0670785 -0.034514308 -0.02152205 -0.033339847 -0.04948487 -0.042510338
0.07744008 -0.03536592 -0.021656523 0.0924332 0.037485298 0.060327057 0.019514453 0.0423907
-0.052637473 0.08315252 -0.0006548479 0.067392066 0.0758709 -0.015934886 0.07076379 0.042503152
0.05502545 0.028903956 0.062351182 0.02763742 0.018147094 0.08731828 0.072007485 0.08677473
0.006564314 -0.01258696 -0.048389494 -0.022264795 -0.022158599 0.030962532 0.072647534 0.047194324
0.076463535 -0.0073337005 0.07557162 0.027050128 -0.03629893 0.0754971 0.04986885 0.06342328

fc2.weight f4 [64, 64]
00000000: 8e65 5c3b 572c dc3c 9291 ecbd 3e8b 27be
00000010: 2172 1fbe c0b9 4e3e 7f95 3c3d 18b1 8b3d
00000020: 9161 60be 58c5 96bb e5ed 09be dfe3 e9bd
00000030: 18b7 07be b549 cc3d b018 0abe c581 303d
00000040: 0788 80bd 4125 903d c1a6 ce3d 4a3e 59be
00000050: 7c5b 58be 2eff d23d ace6 52be 0cc1 2dbe
00000060: c407 5cbe 073c 30bc f0be 273c 0f68 ad3d
00000070: 82af e63c fe59 e33d ac04 793d 8528 d33d
00000080: 88da 50be 2ffc 3c3d 1ae5 473e 78c1 aa3c
00000090: 780a dfbd 3964 2c3c fe0d d83d ee6c df3d
000000a0: 5bd8 803d 7563 4a3d dd68 353e a82f d3bd
000000b0: 1aad 293d 33a9 8a3d 710e ac3d 07cf 3a3c
000000c0: 8e4c 45be d3bb 6abc a837 ec3d 617b 133e
000000d0: cd67 9ebd 82e5 f1bd c225 c1ba a3ec 2bbe
000000e0: 58ed 47be 588d 223e 7876 81bd c840 b1bd
000000f0: d68f ed3d b34a 0fbe 7e6a 5bbe 4620 02be
00000100: 0d7c 983e 0deb 953d a212 e6bd e1e7 b03d
00000110: 6978 24be 1782 2ebe 5cd8 04be e67b 01bc
00000120: 1d3b c03d 31a8 a63d ae40 4f3e d706 1dbe
00000130: 3e34 f6bd 9229 92bd 1880 8fbd 374d 37be
00000140: d479 543e d331 5dbe f696 1b3e 8026 313e
00000150: 6a62 2a3e eceb 3d3e 0e98 fc3d e4a0 18be
00000160: 23b5 6dbe 37f9 cabc f802 27be e6d4 4ebe
00000170: 36ae 163e d2bb c43d 51e2 e4bc f0b2 8db9
00000180: 83a6 03be 1f00 613d 0169 cc3d fada 3bbe
00000190: cfa4 e03d 5b89 ccbd 6833 f4bc 60c0 603c
000001a0: c2ce 3dbd 1618 efbd a826 4cbe da49 2f3d
000001b0: 3142 a3bb a119 a53c a01a 043e 081b 043e
000001c0: 749d 393e 8546 1d3d 3029 5e3e 2933 bf3d
000001d0: c7fe 98bd 9e11 903d 3af4 ea3b ec30 033e
000001e0: 0dc4 2d3d 0273 6a3e 59e0 5bbb 726d 0b3c
000001f0: 462f c438 b5a6 fb3d e0e9 04be 94ae 43bd
00000200: 32b2 053e 8f99 453e 5267 45bd 06b2 993c
00000210: 912e dc3d 5d07 38bd 4485 1ebe 95f1 263e
00000220: 18c5 7f3d 07b6 b83d b0c5 bfbd 3456 523e
00000230: 6e10 26be 13cb 233e 2577 debd 6d50 4abe
00000240: c11d 76bd cdbf 17be 1819 80bd 7374 853d
00000250: f6b6 2c3e 1c36 9bba 74cb 14be 7d81 483e
00000260: c8c2 193d 9711 7b3c f608 a6bd f95e 21be
00000270: c626 24be 5570 153e ec39 9d3d fd26 48be
00000280: 0aa7 3b3e ad61 d0bc 1ffb e9bc b1dd 5ebd
00000290: 2702 2e3c dc22 90bd 3c2f 81bd 3c29 8f3c
000002a0: cc04 1a3e f406 6fbd 06ad 59be 013c 02bd
000002b0: 2703 893d d7b8 273d 252e d2bd 9d87 8cbc
000002c0: 63d7 203e f6b4 793d 48b5 01be 1ba7 02be
000002d0: b196 103e d238 01be 4fde 50be 9183 25be
000002e0: 83af 13be fbc0 f9bb 1010 ecbd 02de e0bc
000002f0: 287f 1e3e ec06 60be 67fe 153e d493 20be
00000300: fc8f 7f3d 9327 4abe f30f cebd 50e1 6a3d
00000310: f0ce 33be 1b68 c6bd 6709 85bd 0897 ce3c
00000320: adbd 113e 5f09 5cbe e72f 5bbd 34fb fd3d
00000330: 0241 3fbc 7a05 e83d d1b6 5e3e 0443 e1bd
00000340: add8 4c3b 5672 4dbe 74ec 58bd 2010 3ebe
00000350: 616f 26bd 6faa 4b3c 76df 33be b1b8 d9bd
00000360: 554f ebbd 1da6 42be 3bc1 243e 15b4 143e
00000370: 82a4 43be c70c 99bd 54df 97bd 3bc9 203e
00000380: 2c2c 6e3c b222 313e 31c0 dfbd 0d75 78be
00000390: c172 393e 7a11 9f3c 617c c7bc ccdc 1b3e
000003a0: 8e8f ecbc a8bc d53d 51ed 26be 9adc 0ebd
000003b0: b447 093d 30d8 00be 2954 cbbd 9381 1b3c
000003c0: 09e2 b03a b4e5 37be 2fc8 1e3e 7103 923d
000003d0: cf56 ee3d 751c 42be 1ca2 1d3e 0080 15bd
000003e0: 2015 cb3d e66d 2f3e 3fe9 d6bb 2636 2cbe
000003f0: a18d 96bd 0560 22be 5c4b 44bd f9fa 18be
0.0033629867 0.026876612 -0.11551203 -0.1636171 -0.1557088 0.20188046 0.046041008 0.06820887
-0.21912219 -0.004601162 -0.13469656 -0.11420416 -0.13253438 0.09974996 -0.1348598 0.043092508
-0.06275945 0.070383556 0.100903995 -0.21215168 -0.21128649 0.10302578 -0.20595807 -0.16968173
-0.21487337 -0.010756499 0.010238394 0.08467113 0.02815986 0.11101149 0.06079547 0.10310463
-0.20395863 0.04613894 0.19520989 0.020844206 -0.10890669 0.010521942 0.10549544 0.109094486
0.062912665 0.049411256 0.17715783 -0.10311824 0.04142485 0.067705534 0.08401192 0.011401898
-0.19267485 -0.014327007 0.11534053 0.14402534 -0.07734642 -0.11811353 -0.0014735984 -0.16789488
-0.19524133 0.15874231 -0.06321424 -0.08654934 0.115997 -0.13993339 -0.21427342 -0.12707624
0.29782143 0.07320223 -0.11234023 0.086379774 -0.16061558 -0.17041813 -0.1297316 -0.007903075
0.09386275 0.08137549 0.20239517 -0.1533464 -0.12021683 -0.07136835 -0.07006854 -0.17900549
0.20749599 -0.21601038 0.15194306 0.17299843 0.16639104 0.18547028 0.1233369 -0.14905125
-0.2321363 -0.024777038 -0.16309726 -0.20198402 0.14714894 0.096061364 -0.027939947 -0.00027026935
-0.12856488 0.054931756 0.099809654 -0.18345252 0.10968935 -0.09987136 -0.029809669 0.013717741
-0.046339758 -0.11674516 -0.19936621 0.04279504 -0.004982256 0.020153822 0.12900782 0.12900937
0.1812647 0.03839733 0.216954 0.0933593 -0.0747047 0.0703461 0.0071702274 0.12811631
0.042423297 0.22895434 -0.003355047 0.0085099805 9.354814e-05 0.12287656 -0.12979841 -0.047773913
0.13056257 0.19296859 -0.048194237 0.018761646 0.10751069 -0.044928897 -0.15480524 0.16303094
0.062443823 0.09019094 -0.09363878 0.20540696 -0.16217205 0.15995435 -0.10862569 -0.19757243
-0.06008697 -0.1481926 -0.06254786 0.065163516 0.16866669 -0.0011841687 -0.14530736 0.19580646
0.037539274 0.015324018 -0.08107178 -0.15758885 -0.16030416 0.14593633 0.07677063 -0.19546123
0.18325439 -0.0254372 -0.028562127 -0.05441064 0.01062063 -0.07037899 -0.06307837 0.017475717
0.15040892 -0.05835624 -0.2125741 -0.031795505 0.066900544 0.04094776 -0.102627076 -0.01715451
0.15707164 0.060963593 -0.1266681 -0.12759058 0.14119984 -0.12619331 -0.20397304 -0.1616347
-0.14422421 -0.007621882 -0.11526501 -0.027449612 0.15478194 -0.2187764 0.14647828 -0.15681392
0.062393174 -0.19741659 -0.10061636 0.05734378 -0.17559409 -0.09687825 -0.06495934 0.025218502
0.14232512 -0.2148795 -0.05351248 0.12401429 -0.011673214 0.113291696 0.21749426 -0.1099911
0.0031257079 -0.20063147 -0.052959874 -0.18560839 -0.040633563 0.012430771 -0.17565712 -0.1063093
-0.11489741 -0.1900868 0.16089337 0.14521821 -0.19105724 -0.0747314 -0.07415643 0.15701763
0.014536899 0.17298391 -0.109253295 -0.24263401 0.18110181 0.019417513 -0.0243513 0.15220946
-0.028877046 0.10436374 -0.16301467 -0.03487835 0.033515647 -0.12582469 -0.09928162 0.009491342
0.0013495098 -0.17958719 0.15506051 0.07129563 0.11637651 -0.18956168 0.15393871 -0.036499023
0.09916139 0.17131767 -0.006558567 -0.16817531 -0.07351232 -0.15856941 -0.04792343 -0.14939488

fc2.bias f4 [64]
00000000: f185 d7bb b66e 8ebc 5636 afbb 3d2a debc
00000010: 6bf7 973d 5b2f 39bd a79e 9e3d 9cf1 963d
00000020: e196 f5bc 70c2 a8bc ec7d e5bb d117 8c3d
00000030: 527b 953d 5596 983d 795c 2fbd 0000 0000
00000040: f283 16bd f77d c63b eff3 b53d 06de 8d3d
00000050: f8c0 a9bc 9791 773c 23fa 3bbd c2fe 9b3d
00000060: 3db2 fcbc 3ad0 3f3c f649 82bc 06b4 a83d
00000070: f4f8 12bd 3c73 d7bc 5fe8 ecbb c963 d5bc
00000080: c15b 9d3d bf9b b63d c5cb 15bc c6e3 3cbd
00000090: 8cdd 753e 1477 aabc 87d3 6c3d 8102 9d3d
000000a0: 5001 0c3d f28a 983d fc32 b33d 63d0 4bbc
000000b0: ceb9 a93d 7b89 293d 03cc 20bd 0c45 233d
000000c0: 0bd0 9b3d b059 8fbc 6cd0 24bd 99ef a83b
000000d0: 477a 62bc 87e1 d7bb ee7b 22bc ddbb 39bc
000000e0: 815f 9dbc e0a4 01bc 6a34 e43b c5d1 85bc
000000f0: d40b 953d 00bb b23d 323c 11bd a72e efbc
-0.0065772464 -0.017386775 -0.0053470535 -0.02711975 0.07420238 -0.045211177 0.07745104 0.07370302
-0.029979171 -0.020600528 -0.0070035364 0.0684048 0.07298912 0.074505486 -0.0428128 0.0
-0.036746927 0.0060574966 0.08884417 0.06927113 -0.020721897 0.015110395 -0.045892846 0.076169506
-0.03084671 0.01170736 -0.015904408 0.08237462 -0.03588195 -0.026300065 -0.007229849 -0.026048558
0.07683516 0.08916425 -0.009142821 -0.04611566 0.24010295 -0.020808734 0.057818916 0.07666493
0.03418094 0.07448377 0.08749959 -0.01243982 0.082873926 0.041390877 -0.03925706 0.03986077
0.076080404 -0.017498821 -0.04023783 0.0051555154 -0.0138230985 -0.0065881643 -0.009917242 -0.011336294
-0.019210579 -0.007912844 0.006964256 -0.016335377 0.07277647 0.08727074 -0.035457797 -0.02919705

fc3.weight f4 [1, 64]
00000000: e0a1 54be 7c46 4b3e da82 8e3e 3c50 d2ba
00000010: 8d16 8abe 19cc 013e 0605 0fbe ea52 87be
00000020: b866 283e 4cb4 553e 714f f63d ce3b bdbe
00000030: 7cd6 b8be cb97 abbe 931f 1c3d 0387 4f3e
00000040: c02b 2a3e faa7 743e e766 b3bd 8493 50be
00000050: 2655 7e3e 74c5 ae3e f16f 513e c6dc 45be
00000060: 6662 693e d949 5c3e d7ce 43be 3579 34be
00000070: ea47 c33d bf89 0b3e a469 823e eb99 f43d
00000080: cb16 21be 2745 fbbd 8685 d13d f63b 5a3e
00000090: b171 0a3f c735 373e 56db 62be e9d3 4fbe
000000a0: cbf9 993e bb46 96be 719c a9be 2b02 aa3d
000000b0: bf66 0abe 6b30 8e3e 43d5 c43d bcac 12bd
000000c0: ab23 58be 368e 613e 9417 623e 7b23 9b3e
000000d0: 82cb 913e c106 293e 9a6d 39be 048c 713e
000000e0: aac9 3d3e b63a 1cbc 1bdd 6cbc e1e4 933e
000000f0: 4157 b4be 21a4 c7be d8fe 283e 6804 a03d
-0.20764875 0.19851106 0.27834207 -0.001604564 -0.2697033 0.12675513 -0.1396676 -0.26430446
0.16445434 0.20869559 0.12026871 -0.3695969 -0.3610114 -0.33514246 0.03811605 0.20266347
0.16618252 0.23892203 -0.087598614 -0.20368773 0.24837169 0.3413502 0.20452859 -0.193225
0.22791442 0.21512546 -0.19121872 -0.17624362 0.09535201 0.13626765 0.25471222 0.1194342
-0.15731351 -0.12269049 0.10230546 0.21311936 0.5407973 0.17891608 -0.22153983 -0.20295681
0.3007339 -0.29350838 -0.33127168 0.08301195 -0.13515757 0.27771315 0.09610989 -0.035809264
-0.21107356 0.22026905 0.22079307 0.30300507 0.28475577 0.16506483 -0.18108216 0.23588568
0.1853396 -0.009535482 -0.0144570125 0.28885558 -0.3522282 -0.38992408 0.16503465 0.078133404
